backend/crowd_counting.pth (torch, 584242 bytes, 31 tensors)

column1.0.weight f4 [8, 3, 9, 9]
-0.040318985 0.04880539 0.04771345 0.0075082933 0.054262634 -0.058716666 -0.050884616 0.018640041
-0.012576372 0.04855161 0.04710832 -0.03445718 -0.036733244 -0.024282582 -0.028552478 -0.012222308
-0.05571705 -0.008197787 0.018733973 -0.037714094 0.025196802 -0.026735477 0.013137843 -0.0017161998
-0.062603705 -0.057094917 -0.011895059 -0.058868095 0.023401756 0.021369917 0.029678538 0.056407463
0.010897428 -0.06956732 -0.035675865 0.017286101 0.003624191 0.039589282 0.009197419 0.03750086
0.014620426 -0.034867823 0.035895314 -0.05753564 0.037936073 -0.06250447 -0.04885864 0.04338967
-0.005402191 0.007407786 -0.0050549065 -0.0004810619 -0.07064122 -0.07022889 -0.026409224 -0.0058886157
-0.011712221 0.0044445945 -0.06483432 0.006527685 0.039671786 0.029674968 0.007993723 -0.015092964
0.016585888 -0.026763353 0.02530203 -0.039931476 -0.00048753698 0.010674152 -0.05814965 -0.044549026
0.042848162 -0.020191368 0.035102744 0.0043236664 -0.008249054 0.019025147 -0.06274913 -0.018510103
0.04716615 0.043527205 0.014011752 0.034158505 -0.00030762466 -0.058898788 0.025542393 0.050762326
0.022068938 -0.05460506 0.027864369 -0.018201748 0.012382709 0.006642958 -0.06471625 0.031723745
0.052597035 0.020971803 -0.052181594 -0.0013600352 0.004154808 -0.021972412 0.03440703 -0.02678934
0.0039883056 0.056011915 -0.009011269 -0.056012515 0.040267583 0.056454185 -0.003239777 -0.03552251
-0.0004195265 0.0030867204 0.058184262 -0.043175433 0.022721384 -0.038988817 0.011626661 -0.0076502776
-0.06474396 -0.03681308 0.007944497 -0.05313356 -0.06625901 0.04098109 -0.022344291 -0.0138388835
-0.048135765 -0.041216563 0.051483747 -0.06904671 0.045462985 -0.044029523 -0.06571715 -0.024294877
0.01475926 -0.037956163 -0.048000272 -0.024958339 0.011512967 -0.0017533337 -0.008492509 0.010503693
0.02306617 -0.058332354 -0.05822642 -0.048496526 0.017596103 -0.023111448 -0.031623412 -0.033132352
-0.013518052 -0.011420312 -0.034617435 -0.06296634 0.013995881 -0.027942127 0.041562904 -0.024215432
-0.06390998 -0.0206243 -0.026621746 -0.0078081144 -0.033178866 -0.052201163 -0.00010211574 -0.01811119
-0.035140917 0.04852485 0.05093857 0.011589358 -0.036533188 0.021208733 -0.056571066 -0.0335558
0.031992763 -0.041622855 0.055388678 -0.038227662 -0.013609506 -0.014035552 -0.0074010473 0.0454393
-0.032393366 0.041849174 0.02133869 -0.027635632 -0.050555974 0.012031664 -0.05088695 -0.04395592
-0.05182906 -0.06127766 0.050912336 -0.035624303 -0.037735358 0.05537063 0.034768675 -0.03462503
0.023604661 0.055039566 -0.06862186 -0.05335229 -0.01048536 -0.008859231 -0.018356223 -0.017757356
-0.033867557 -0.015310072 -0.0075799623 0.021548687 -0.06935239 -0.06425171 0.041313782 0.0067936503
-0.020066187 -0.014105543 -0.040057685 0.022397976 -0.0049872943 -0.0057324 0.015576857 -0.03532418
0.018177258 -0.035693813 0.007620533 0.01492281 0.025370235 0.022783285 -0.06637922 0.008779043
0.019405236 -0.042692285 0.011781598 0.040801927 0.046262745 -0.044893257 0.020691928 0.04811052
-0.003870018 0.016271897 0.0027299589 -0.04970565 0.03682597 0.009158578 0.052833084 -0.045469955
-0.055206113 -0.020770412 -0.044079687 0.026499039 -0.039517928 0.03593059 0.043679256 -0.01309419
00000000: 8525 25bd 29e8 473d 2e6f 433d 2108 f63b
00000010: 7f42 5e3d e380 70bd 636c 50bd 00b3 983c
00000020: 210d 4ebc 0ede 463d a7f4 403d f922 0dbd
00000030: 9975 16bd 44ec c6bc e3e6 e9bc 1340 48bc
00000040: 9037 64bd 0350 06bc fd77 993c 187a 1abd
00000050: 8669 ce3c 5c04 dbbc 1c40 573c 1cf2 e0ba
00000060: 5f36 80bd 5cdc 69bd 7ee3 42bc ac1f 71bd
00000070: 0ab5 bf3c f70f af3c 6820 f33c 830b 673d
00000080: 208b 323c 5079 8ebd db20 12bd 959b 8d3c
00000090: d683 6d3b 5f28 223d c5b0 163c 809a 193d
000000a0: 838a 6f3c 90d1 0ebd f706 133d 7eaa 6bbd
000000b0: db62 1b3d 5802 80bd ff1f 48bd 5eb9 313d
000000c0: dd04 b1bb 03bd f23b a1a3 a5bb 0937 fcb9
000000d0: 58ac 90bd 2ad4 8fbd 2858 d8bc 4af5 c0bb
000000e0: 9ee4 3fbc f6a3 913b dbc7 84bd 31e6 d53b
000000f0: e27e 223d eb18 f33c 1bf8 023c 7b48 77bc
00000100: 21df 873c d23e dbbc 3446 cf3c 308f 23bd
00000110: 1b9c ffb9 a3e2 2e3c 542e 6ebd 0a79 36bd
00000120: 8e81 2f3d 5e68 a5bc e5c7 0f3d 8bad 8d3b
00000130: 0a27 07bc a0da 9b3c 9e82 80bd 80a2 97bc
00000140: 4b31 413d 9549 323d 8c91 653c cae9 0b3d
00000150: af48 a1b9 db3f 71bd 483e d13c 28ec 4f3d
00000160: ebc9 b43c 8ea9 5fbd d143 e43c d51b 95bc
00000170: d9e0 4a3c 2cad d93b f489 84bd c2f0 013d
00000180: fd6f 573d 0fcd ab3c 5ebc 55bd 3543 b2ba
00000190: 0e25 883b 7dff b3bc 63ee 0c3d 5175 dbbc
000001a0: 55b0 823b c06c 653d 00a4 13bc 616d 65bd
000001b0: 9fef 243d 813c 673d 7052 54bb 0d80 11bd
000001c0: e5f3 dbb9 934a 4a3b 9f52 6e3d b9d8 30bd
000001d0: 3222 ba3c bdb2 1fbd c07d 3e3c 2eaf fabb
000001e0: 7b98 84bd 50c9 16bd a329 023c 93a2 59bd
000001f0: ceb2 87bd cadb 273d 600b b7bc 7cbc 62bc
00000200: 022a 45bd b3d2 28bd 9fe0 523d 5d68 8dbd
00000210: 6537 3a3d 4d58 34bd b796 86bd 0d06 c7bc
00000220: d3d0 713c ec77 1bbd ef9b 44bd 6e75 ccbc
00000230: e2a0 3c3c 1ed0 e5ba 2a24 0bbc ae17 2c3c
00000240: 44f5 bc3c e8ed 6ebd d47e 6ebd 4ba4 46bd
00000250: b425 903c 3854 bdbc 8d87 01bd cab5 07bd
00000260: d27a 5dbc 431c 3bbc 03cb 0dbd 7ff4 80bd
00000270: fb4e 653c e3e6 e4bc dd3d 2a3d 715f c6bc
00000280: 3ce3 82bd 4bf4 a8bc d915 dabc 36db ffbb
00000290: 90e6 07bd e3d0 55bd f826 d6b8 eb5d 94bc
000002a0: ecef 0fbd fec1 463d f6a4 503d 4ae1 3d3c
000002b0: d3a3 15bd f0bd ad3c 10b7 67bd ce71 09bd
000002c0: d80a 033d ba7c 2abd 3ddf 623d 9c94 1cbd
000002d0: 68fa 5ebc 5ff5 65bc 7c84 f2bb 8f1e 3a3d
000002e0: e8ae 04bd 0a6a 2b3d 7ace ae3c 1f64 e2bc
000002f0: c813 4fbd 7520 453c d66e 50bd 1f0b 34bd
00000300: b54a 54bd 49fe 7abd 7489 503d caea 11bd
00000310: 6490 1abd 50cc 623d 9969 0e3d fad2 0dbd
00000320: 905e c13c 2b71 613d 9e89 8cbd ee87 5abd
00000330: caca 2bbc 4f26 11bc ca5f 96bc e077 91bc
00000340: b5b8 0abd 19d7 7abc 5561 f8bb df86 b03c
00000350: a008 8ebd 6796 83bd a438 293d 459d de3b
00000360: d861 a4bc ef1a 67bc 8713 24bd f67b b73c
00000370: 756c a3bb dbd6 bbbb 1336 7f3c 16b0 10bd
00000380: 79e8 943c ad33 12bd aab5 f93b cd7e 743c
00000390: 3dd5 cf3c 03a4 ba3c d4f1 87bd fad5 0f3c
000003a0: bbf7 9e3c 1bde 2ebd 9b07 413c ec1f 273d
000003b0: 017e 3d3d fee1 37bd 1e82 a93c 890f 453d
000003c0: 21a0 7dbb a44c 853c 1ce9 323b 2798 4bbd
000003d0: d4d6 163d dc0d 163c 8167 583d b43e 3abd
000003e0: ce1f 62bd b626 aabc e78c 34bd 8314 d93c
000003f0: 8ddd 21bd f42b 133d 05e9 323d 0389 56bc

column1.0.bias f4 [8]
-0.03314226 -0.06722036 -0.02882495 -0.011840222 0.041936714 0.052772503 0.01697557 -0.044261396
00000000: 2ec0 07bd d4aa 89bd 4d22 ecbc 7efd 41bc
00000010: d5c5 2b3d fb27 583d 5a10 8b3c 704b 35bd

column1.3.weight f4 [16, 8, 7, 7]
0.048821814 -0.040513758 -0.023976596 -0.04274705 -0.038366646 0.01864132 0.016825804 0.04949457
0.054385394 -0.01741259 -0.036295496 0.01326309 -0.0150872 0.0040446073 0.034889035 -0.023099158
-0.0053689573 0.006936336 -0.024917802 0.0350532 0.036057997 0.03162946 0.0418349 0.037748754
0.026423968 -0.02342264 0.003522615 -0.016301649 0.01327049 -0.032950833 -0.02293624 0.05281217
-0.031643435 -0.03491833 0.0027379238 -0.042189594 -0.020738158 0.0027775492 -0.026803428 -0.02688072
0.023736216 0.048949774 -0.02133193 -0.021093043 -0.009604746 -0.026946932 0.040454723 -0.04037693
0.048586022 0.011260515 0.04162608 -0.03292472 0.034256548 -0.014028814 -0.040667053 0.033923738
-0.04126424 -0.010926516 -0.001232405 -0.007197955 0.036518507 -0.03248028 0.0035438826 0.03276976
0.049554605 0.0153685715 -0.03674806 0.01993632 0.008961152 -0.005700141 0.04292568 -0.04846414
0.038904753 -0.0276588 -0.04794332 0.027138678 0.0025273722 0.02713258 0.0482996 -0.021800902
-0.019140618 -0.051187787 -0.03028139 0.04559704 -0.045292396 -0.04822011 0.022970902 0.023209317
0.017320707 -0.032803822 0.019828811 -0.03379884 0.015814448 0.0043881303 0.028786203 -0.030273907
0.03673376 -0.036107425 0.023779137 -0.018926892 0.029264938 0.0047299825 -0.02209853 0.034071088
0.024388013 -0.01777712 -0.047286805 0.025778357 0.0035170543 -0.005633119 0.035778675 -0.014120027
0.016605252 -0.024640212 0.004316245 -0.026336376 -0.033643804 0.03175989 0.032144114 0.0023519276
-0.03219728 -0.0454236 -0.023807535 0.019895982 -0.011678404 -0.05074293 0.016266841 -0.023365919
-0.0049717496 -0.04829895 -0.020980973 -0.032332383 0.04153818 0.035038058 0.01661474 -0.006104818
-0.038184676 -0.03851855 0.012506636 0.027642304 0.030081546 -0.051785193 0.04303677 -0.055140175
-0.039723463 0.039859064 -0.038596172 0.029419238 0.0033645506 0.04164001 -0.042343434 0.004710959
-0.041726697 -0.012693799 0.051836338 0.027854241 0.031101814 0.01342725 -0.036083344 0.027827919
-0.020520777 -0.007976313 -0.010432078 0.009936925 -0.00980784 -0.025702344 0.00905438 -0.029822625
0.014252555 0.051167566 0.012585664 -0.026284622 0.005186834 0.020906804 0.0362906 0.009718797
0.010946107 -0.025365414 -0.027789403 -0.005516517 0.017572064 -0.028185356 0.05020893 -0.018240755
0.04657018 0.019348737 -0.021924261 -0.005202198 0.041984074 0.043527972 0.022233626 -0.027402686
0.0065831495 -0.044435855 -0.008360096 0.0015208038 -0.035710495 -0.02571369 -0.05067969 0.012438954
0.0008169906 -0.023197614 -0.006973406 -0.04637635 -0.034662064 -0.03918021 -0.04693292 -0.044058975
-0.036306467 -0.007607116 -0.046218794 -0.04460298 -0.038289383 0.03415881 0.008666803 -0.047526095
0.004640777 -0.029335713 -0.0075801313 0.0065841265 -0.019523447 -0.0059167566 -0.04933555 -0.02436718
-0.014610447 0.031549647 -0.04270783 0.04129049 0.0032142948 -0.025319584 0.0040083714 0.00015868313
0.0015415972 -0.023268823 0.037013363 0.019424178 -0.020710632 -0.033148944 -0.0206328 0.033183176
-0.00031489838 -0.004336667 -0.038194776 0.02184341 -0.0013643086 -0.03075188 0.031090967 -0.02171948
0.0133023495 -0.054693937 0.011985285 -0.04676295 0.03764934 -0.054782975 0.027412873 -0.025163544
00000000: 62f9 473d c1f1 25bd 916a c4bc 8817 2fbd
00000010: 5826 1dbd aeb5 983c 45d6 893c d1ba 4a3d
00000020: 38c3 5e3d d9a4 8ebc 96aa 14bd 6e4d 593c
00000030: 4e30 77bc a088 843b cee7 0e3d 723a bdbc
00000040: 14ee afbb 344a e33b 6b20 ccbc f293 0f3d
00000050: 8db1 133d e58d 013d 125b 2b3d 709e 1a3d
00000060: 1477 d83c d6e0 bfbc acdb 663b 098b 85bc
00000070: 786c 593c 74f7 06bd c8e4 bbbc 9351 583d
00000080: 8c9c 01bd 8606 0fbd bd6e 333b ffce 2cbd
00000090: 12e3 a9bc 8b07 363b dd92 dbbc f534 dcbc
000000a0: 7472 c23c 8f7f 483d 4dc0 aebc 51cb acbc
000000b0: 395d 1dbc d0bf dcbc dab3 253d 4862 25bd
000000c0: 2302 473d 067e 383c 1c80 2a3d 12dc 06bd
000000d0: 9850 0c3d 1cd9 65bc 7f92 26bd 9ef3 0a3d
000000e0: b104 29bd 2105 33bc a688 a1ba d3dc ebbb
000000f0: 6e94 153d 0b0a 05bd 7c40 683b 9539 063d
00000100: c5f9 4a3d 76cc 7b3c 2285 16bd 7e51 a33c
00000110: ccd1 123c 40c8 babb d6d2 2f3d 5682 46bd
00000120: 975a 1f3d b594 e2bc 3760 44bd ef51 de3c
00000130: 45a2 253b 2545 de3c cdd5 453d ce97 b2bc
00000140: c9cc 9cbc 49aa 51bd ad10 f8bc f6c3 3a3d
00000150: 8584 39bd 7382 45bd 792d bc3c 7721 be3c
00000160: 28e4 8d3c 4d5d 06bd 0870 a23c a770 0abd
00000170: 4d8d 813c 4eca 8f3b 0bd1 eb3c fc00 f8bc
00000180: 2476 163d 61e5 13bd 77cc c23c 920c 9bbc
00000190: 06bd ef3c f8fd 9a3b fa07 b5bc 208e 0b3d
000001a0: 5fc9 c73c 53a1 91bc cfaf 41bd 222d d33c
000001b0: 617e 663b 0796 b8bb a98c 123d b057 67bc
000001c0: bd07 883c 45da c9bc 4a6f 8d3b 62bf d7bc
000001d0: 16ce 09bd a916 023d 8ca9 033d cc22 1a3b
000001e0: 4ce1 03bd 190e 3abd 0508 c3bc e6fc a23c
000001f0: c756 3fbc d2d7 4fbd 0a42 853c e269 bfbc
00000200: 0fea a2bb 1fd5 45bd 4ae0 abbc f66e 04bd
00000210: f023 2a3d 1184 0f3d a31b 883c ed0a c8bb
00000220: 8967 1cbd a1c5 1dbd a2e8 4c3c 1d72 e23c
00000230: 936d f63c b61c 54bd 5347 303d aada 61bd
00000240: 12b5 22bd 4243 233d 0517 1ebd 9d00 f13c
00000250: cb7f 5c3b b78e 2a3d 4f70 2dbd 635e 9a3b
00000260: 9de9 2abd a7f9 4fbc 5752 543d 942e e43c
00000270: 3bc9 fe3c f8fd 5b3c 21cc 13bd 60f7 e33c
00000280: 301b a8bc 15af 02bc 4eeb 2abc 7cce 223c
00000290: 10b1 20bc b98d d2bc d258 143c 944e f4bc
000002a0: 8c83 693c 1595 513d 1a34 4e3c d952 d7bc
000002b0: 51f6 a93b bf44 ab3c 74a5 143d 973b 1f3c
000002c0: 4d57 333c 21cb cfbc 9aa6 e3bc e6c3 b4bb
000002d0: 4af3 8f3c fae4 e6bc e1a7 4d3d a36d 95bc
000002e0: 60c0 3e3d 3e81 9e3c 829a b3bc 3377 aabb
000002f0: 7ef7 2b3d 634a 323d 4b23 b63c 997b e0bc
00000300: 76b7 d73b 5f02 36bd c9f8 08bc b555 c73a
00000310: 2b45 12bd 84a5 d2bc 8295 4fbd c1cc 4b3c
00000320: 502b 563a ec08 bebc 2b81 e4bb 21f5 3dbd
00000330: cff9 0dbd 6e7b 20bd bc3c 40bd 2f77 34bd
00000340: 17b6 14bd 1d45 f9bb eb4f 3dbd 9db1 36bd
00000350: 54d5 1cbd 1cea 0b3d 35ff 0d3c b9aa 42bd
00000360: a911 983b 7351 f0bc c062 f8bb a8bf d73b
00000370: a3ef 9fbc 5ae1 c1bb 1314 4abd ae9d c7bc
00000380: a860 6fbc 343a 013d 68ee 2ebd 3820 293d
00000390: eba6 523b 046b cfbc a858 833b 2e64 2639
000003a0: 6b0f ca3a 429e bebc 539b 173d 741f 9f3c
000003b0: 58a9 a9bc 30c7 07bd 1e06 a9bc 15eb 073d
000003c0: f218 a5b9 991a 8ebb 2072 1cbd f3f0 b23c
000003d0: 9ad2 b2ba 5eeb fbbc 7cb2 fe3c 0ded b1bc
000003e0: 19f2 593c c006 60bd ee5d 443c 828a 3fbd
000003f0: 3236 1a3d 1d64 60bd f690 e03c c723 cebc

column1.3.bias f4 [16]
0.02818893 0.009433764 0.012922184 0.037948374 -0.0352159 0.039688155 -0.05437531 0.009486106
-0.034873314 -0.00019995158 -0.011484451 -0.028182564 -0.043023963 0.03252652 0.027427413 -0.011584827
00000000: 79ec e63c 1390 1a3c 91b7 533c c16f 1b3d
00000010: 8c3e 10bd 0c90 223d a5b8 5ebd 9d6b 1b3c
00000020: 52d7 0ebd 18aa 51b9 4729 3cbc 1fdf e6bc
00000030: e539 30bd 873a 053d 74af e03c 49ce 3dbc

column1.6.weight f4 [32, 16, 7, 7]
0.009327248 -0.021274608 0.00805247 -0.016103528 -0.028520076 0.021267302 0.028512858 0.005195111
0.015189278 0.032568503 -0.005291774 -0.009499758 -0.00019413963 -0.013063965 -0.022991655 -0.004864834
-0.015771868 -0.0004839829 0.019179534 -0.019188907 -0.031335622 -0.008999251 0.024760481 0.0036996126
-0.016695013 -0.0159443 -0.0351653 -0.020481436 0.013736622 -0.0057268413 0.017750818 0.011705752
0.02577136 0.0040252395 0.007865051 -0.023550022 0.003090076 0.008970368 0.030081725 -0.02336201
-0.026216125 0.0040214565 0.017245756 0.0019316957 0.016935946 0.015556252 0.02470775 -0.009217313
-0.01414248 -0.03475619 0.01715464 0.024007555 0.021615965 0.017272055 0.01137185 0.020744212
-0.0037362638 -0.005066372 -0.036781408 0.025460517 -0.028281154 0.0031282413 0.023595318 -0.028594539
0.014786126 0.023268234 -0.037291255 -0.014385934 0.011741003 -0.028885322 -0.036634207 -0.012795924
-0.016592842 -0.018398771 0.022083908 -0.03632365 0.001740744 -0.008197652 -0.0032353872 0.022863684
0.021459056 0.025554124 0.002820861 -0.02868872 -0.031096084 -0.025288366 -0.02433951 0.010316364
0.02760664 0.032675806 0.014702906 -0.02591093 0.009763627 -0.022166265 -0.030248774 -0.018552857
0.004114977 0.00011966753 -0.008878416 0.03520405 -0.025293317 0.010400234 -0.010102312 0.029546743
0.009345141 0.028899748 -0.012576892 0.029120784 0.03343431 -0.014838606 0.018133035 0.025780944
0.00056607963 -0.014140284 -0.016301828 0.020119965 0.013466691 -0.012049284 0.012794182 -0.0009091102
0.005370769 0.033215087 -0.0005235598 0.029071407 0.017454997 -0.005709046 0.021087293 0.003436984
-0.015960572 -0.010985179 0.0006539632 0.022786789 -0.015465906 0.01524936 -0.013061854 -0.007677108
-0.010554632 0.029468289 -0.015763124 0.041515116 0.013329837 0.005362364 0.016153622 0.013519719
-0.011493763 0.020733487 -0.02533132 0.002037087 -0.0066243913 0.0060779597 0.025081852 -0.018112285
0.029039077 -0.021157013 -0.029916456 -0.029666265 0.0068143127 -0.013409568 0.032727465 0.019301442
-0.0011407206 0.02889662 -0.029820293 0.029108847 -0.020069068 0.002586132 -0.0074250903 0.0014012976
0.019965652 -0.0074836514 -0.030320022 -0.009658103 0.0015522989 0.0039518736 -0.03019166 0.014153938
0.0016215295 -0.029038547 0.011045765 -0.013480253 0.029560702 -0.035917036 -0.0035238634 -0.012340302
0.0050605093 0.026710717 -0.0359859 -0.00057677773 -0.032516547 -0.03498847 0.00048095957 -0.03728818
-0.0070571112 0.0007807646 -0.029065294 -0.015112287 0.024444524 0.02492736 -0.019775074 -0.023992455
0.021870118 -0.00975356 0.012966928 0.017546931 0.014263903 -0.019065943 -0.008645159 -0.027117256
-0.011651124 -0.011195009 -0.007480431 0.017701378 -0.0197852 0.01349651 0.026177647 0.01772235
0.019590018 -0.03457723 0.0130974855 -0.019062037 -0.0241307 -0.024827586 0.005416208 -0.0013388633
-0.0112260375 0.026445406 -0.0022338203 0.006920072 -0.021366494 0.025321644 0.023653142 -0.022789204
-0.0013634075 0.020702189 -0.0075088805 0.022083098 0.02284129 -0.0028459115 -0.009730478 0.013358447
-0.029673344 -0.011518964 -0.026029993 -0.0064704767 -0.02360055 -0.03170076 0.013203733 -0.023917357
0.029870998 -0.014691557 -0.03068432 -0.010364283 -0.001988524 -0.014377076 0.012801837 -0.022853957
00000000: 50d1 183c 1648 aebc 82ee 033c 8ceb 83bc
00000010: efa2 e9bc c438 ae3c cc93 e93c c03b aa3b
00000020: 73dc 783c 8d66 053d 9e66 adbb dfa4 1bbc
00000030: f691 4bb9 3e0a 56bc ff58 bcbc 2f69 9fbb
00000040: 0134 81bc 16bf fdb9 661e 9d3c 0e32 9dbc
00000050: c859 00bd 9871 13bc 7ed6 ca3c 3375 723b
00000060: fbc3 88bc 9f9d 82bc 7d09 10bd afc8 a7bc
00000070: 920f 613c 3aa8 bbbb 2a6a 913c 7cc9 3f3c
00000080: 761e d33c 28e6 833b 6adc 003c faeb c0bc
00000090: df82 4a3b 73f8 123c f36d f63c b061 bfbc
000000a0: 33c3 d6bc 6cc6 833b f946 8d3c f430 fd3a
000000b0: 41bd 8a3c a6df 7e3c e867 ca3c 3604 17bc
000000c0: dcb5 67bc 825c 0ebd e387 8c3c 7eab c43c
000000d0: f713 b13c 207e 8d3c ff50 3a3c c4ef a93c
000000e0: 1bdc 74bb cf03 a6bb 1aa8 16bd 9392 d03c
000000f0: e1ad e7bc 2e03 4d3b f84a c13c 183f eabc
00000100: 8241 723c 069d be3c b7be 18bd fbb2 6bbc
00000110: 565d 403c e9a0 ecbc c00d 16bd ffa5 51bc
00000120: b6ed 87bc 05b9 96bc 50e9 b43c 1cc8 14bd
00000130: ad29 e43a 724f 06bc ca08 54bb 9f4c bb3c
00000140: e7ca af3c e256 d13c 32de 383b 9b04 ebbc
00000150: 37bd febc 8c29 cfbc a763 c7bc f705 293c
00000160: 5227 e23c 11d7 053d 75e4 703c 2943 d4bc
00000170: 9ff7 1f3c 0796 b5bc 47cc f7bc 29fc 97bc
00000180: eed6 863b 04f6 fa38 c776 11bc 1f32 103d
00000190: ee33 cfbc be65 2a3c 2b84 25bc 030c f23c
000001a0: 5d1c 193c 2abf ec3c 4f0f 4ebc b68e ee3c
000001b0: 6af2 083d a01d 73bc bb8b 943c 8f32 d33c
000001c0: f664 143a a6ac 67bc 698b 85bc a0d2 a43c
000001d0: 65a3 5c3c 5c6a 45bc b09e 513c 5a51 6eba
000001e0: 47fd af3b 8b0c 083d 813f 09ba 2927 ee3c
000001f0: c8fd 8e3c f312 bbbb 42bf ac3c 063f 613b
00000200: bfbf 82bc 2efb 33bc ba6e 2b3a 5cab ba3c
00000210: b664 7dbc 74d8 793c 6301 56bc 4090 fbbb
00000220: 56ed 2cbc 7b67 f13c ab21 81bc c10b 2a3d
00000230: 6365 5a3c c5b6 af3b 9a54 843c d081 5d3c
00000240: 5650 3cbc 46d9 a93c a183 cfbc a680 053b
00000250: 6c11 d9bb 9f29 c73b 7578 cd3c 3760 94bc
00000260: 5ce3 ed3c 7951 adbc 5b13 f5bc ab06 f3bc
00000270: 994a df3b ceb3 5bbc 3c0d 063d 0f1e 9e3c
00000280: 3b84 95ba 9bb8 ec3c b049 f4bc ad75 ee3c
00000290: e367 a4bc 187c 293b 2c4e f3bb bfab b73a
000002a0: 028f a33c 6b39 f5bb b261 f8bc 053d 1ebc
000002b0: 8276 cb3a b87e 813b 8054 f7bc ebe5 673c
000002c0: 8089 d43a 3fe2 edbc 4cf9 343c 47dc 5cbc
000002d0: 4929 f23c be1d 13bd 9ef0 66bb fa2e 4abc
000002e0: a1d2 a53b 6fd0 da3c f365 13bd e632 17ba
000002f0: 1230 05bd 1250 0fbd 4d29 fc39 7ebb 18bd
00000300: 573f e7bb 3aac 4c3a 571a eebc 8799 77bc
00000310: e23f c83c 7634 cc3c 56ff a1bc d38b c4bc
00000320: f628 b33c 65cd 1fbc 3d73 543c 95be 8f3c
00000330: 25b3 693c 2e30 9cbc 6da4 0dbc 0225 debc
00000340: 5be4 3ebc 456b 37bc 671e f5bb 7b02 913c
00000350: 9214 a2bc 7720 5d3c 8172 d63c 762e 913c
00000360: 3f7b a03c dba0 0dbd d696 563c fd27 9cbc
00000370: bfad c5bc 3963 cbbc 727a b13b cc7c afba
00000380: 6aed 37bc 09a4 d83c 4965 12bb c5c1 e23b
00000390: c908 afbc 566f cf3c 3cc4 c13c 6db0 babc
000003a0: 5db4 b2ba a397 a93c 0e0d f6bb 9de7 b43c
000003b0: a81d bb3c 7982 3abb 956c 1fbc 63dd 5a3c
000003c0: 8315 f3bc 09ba 3cbc da3c d5bc 4b06 d4bb
000003d0: f155 c1bc a8d8 01bd 7854 583c 55ee c3bc
000003e0: 06b4 f43c dbb4 70bc af5d fbbc f4ce 29bc
000003f0: e651 02bb d48d 6bbc ccbe 513c 3938 bbbc

column1.6.bias f4 [32]
-0.00064147025 -0.005905813 0.0074283304 -0.0008102642 0.016638814 -0.019467771 -0.009389788 -0.015479423
0.03276774 -0.0066938493 0.007084399 0.030043384 -0.036775604 0.006882957 0.004045287 -0.009149624
0.025135245 -0.032563977 -0.00884665 -0.02569253 0.02104279 0.030407367 -0.002212233 -0.0430869
-0.005305152 0.008444812 0.025251908 0.01689742 0.027667504 0.018871972 -0.021714645 0.02464137
00000000: 5728 28ba 8d85 c1bb 5a69 f33b e967 54ba
00000010: 1f4e 883c e07a 9fbc a0d7 19bc 689d 7dbc
00000020: 7737 063d 1458 dbbb 3f24 e83b 8b1d f63c
00000030: 04a2 16bd 6e8a e13b 548e 843b 4ee8 15bc
00000040: 6ee8 cd3c ce61 05bd 8af1 10bc 2479 d2bc
00000050: ee61 ac3c df18 f93c 1cfb 10bb e47b 30bd
00000060: d7d6 adbb 1c5c 0a3c 17dd ce3c 756c 8a3c
00000070: f6a6 e23c 6599 9a3c e9e2 b1bc b3dc c93c

column1.8.weight f4 [16, 32, 7, 7]
-0.0008998575 -0.012801969 0.0052532055 -0.02694325 -0.017191397 0.008517358 -0.0025903825 -0.025485137
-0.0034441927 0.011561743 0.014129255 -0.0172902 0.0019125744 -0.013995083 -0.00066147564 -0.027210658
-0.030652542 -0.02675544 -0.016904907 0.0077611418 -0.020552767 -0.0015975614 0.0063001555 0.00095138466
-0.011801397 -0.021581031 -0.0050875447 0.0045601614 -0.029974991 0.00050110876 -0.02052214 0.012870469
-0.006112114 -0.006792599 -0.027306868 -0.014459978 -0.020928156 0.007806576 0.008024921 -0.023222899
-0.027408624 -0.0145805655 -0.002046869 0.012024235 -0.026656099 0.017133959 0.007504047 -0.030522773
0.010305495 0.013633414 0.014616486 -0.0012710498 -0.012203356 0.009234565 -0.019961042 0.009063243
0.017473938 0.0026086837 -0.01297295 0.008747244 0.027878087 -0.01258868 0.0016947319 0.019554738
0.025322052 -0.009008847 -0.005878966 0.0009449343 -0.009173399 -0.0061305077 -0.0052938485 0.019295795
-0.001980189 -0.0037090895 0.002266673 -0.0048924875 0.003354423 -0.005952663 0.01928819 -0.015646426
0.008717932 0.012286195 0.028035114 0.021041917 0.002243633 -0.004452262 -0.0003062768 -0.00718573
-0.029195968 0.009092293 0.0023085212 -0.027398087 -0.018141737 -0.006964014 0.0023084297 0.01587591
-0.022004513 -0.024602165 0.0036990654 -0.024840737 -0.0052428637 -0.0208079 -0.0033986543 0.009752748
-0.029238457 0.0023126353 0.0016374007 0.0046404097 0.0005767601 0.01736993 -0.006890258 0.005242612
-0.027546892 -0.0073312414 -0.025186805 0.017619856 -0.020389808 -0.0053191525 -0.009191557 -0.030469121
0.01442942 0.01909005 -0.012911522 0.01846032 -0.02467314 0.008882382 0.010876342 0.0067575537
-0.01173704 0.008051596 -0.0024396884 -0.022356117 0.017510528 -0.02276941 -0.011237134 -0.016316146
-0.02854722 -0.027454196 -0.010339291 0.016041927 -0.024334071 -0.024924241 0.005779675 0.0145210475
0.017487414 -0.02791582 0.012344676 -0.025026815 -0.021535395 -0.004560961 -0.023899963 -0.027282506
-0.021282036 0.0029952412 -0.012027885 0.009963645 -0.015798416 -0.027333066 0.010814363 -0.018441137
-0.011222625 -0.031237548 -0.016268764 0.0066124387 -0.024228645 0.012567913 -0.018084971 -0.0016973385
-0.0018942419 0.000108917855 0.018311933 0.0013641742 -0.0054915445 -0.02370104 -0.023690851 -0.006139299
-0.025537718 -0.0037326731 -0.002020323 0.0027070232 -0.016625848 -0.027526092 -0.0057444978 -0.0013008225
0.014021334 -0.0077343113 -0.008230319 0.0056572505 -0.027679719 -0.028875189 -0.02145129 0.0059165354
-0.031238016 0.015111127 -0.03039855 -0.017780324 -0.029536674 0.010651228 0.0147089735 0.00820281
-0.010402963 0.009830121 0.0142422505 -0.010024897 -0.0066021527 -0.020076506 -0.0029887278 -0.030333687
-0.0004315319 -0.018955944 0.017173266 -0.018247904 -0.030687574 0.0023908378 0.0073489402 -0.025273684
0.019079816 -0.0021543563 -0.009048024 -0.02218513 -0.012975386 -0.021271178 -0.019541226 -0.0058826692
0.0032016246 -0.02428295 0.016708964 0.010325093 -0.023450496 0.0143304905 -0.0017156012 -0.012488708
0.00094065716 -0.003962928 -0.0012739578 -0.0038900508 0.0005296386 -0.011225016 -0.0031240375 0.018908074
-0.0036256635 -0.017885568 0.010873742 -0.029226402 0.010025136 -0.017672075 -0.027306784 0.015580754
0.00984526 -0.028464062 0.009710014 -0.006397468 0.0049520526 -0.021600408 -0.0080951 -0.01984073
00000000: 6ae4 6bba 5abf 51bc 1523 ac3b 17b8 dcbc
00000010: f9d4 8cbc 648c 0b3c 68c3 29bb 35c6 d0bc
00000020: f7b7 61bb 776d 3d3c 647e 673c 2da4 8dbc
00000030: 59af fa3a a24b 65bc e166 2dba e3e8 debc
00000040: 0a1b fbbc 392e dbbc 297c 8abc 2d51 fe3b
00000050: 475e a8bc 4465 d1ba 8971 ce3b 5866 793a
00000060: a65a 41bc b4ca b0bc 6bb5 a6bb 686d 953b
00000070: 1d8e f5bc d75c 033a 0c1e a8bc a9de 523c
00000080: 2148 c8bb 7394 debb a7b2 dfbc 8be9 6cbc
00000090: 8671 abbc 4ece ff3b f57a 033c f33d bebc
000000a0: 0d88 e0bc 53e3 6ebc c324 06bb 4c01 453c
000000b0: e45d dabc 845c 8c3c 82e4 f53b e50a fabc
000000c0: 61d8 283c af5e 5f3c fc79 6f3c 5b99 a6ba
000000d0: 96f0 47bc 934c 173c 5785 a3bc ff7d 143c
000000e0: 8125 8f3c 73f6 2a3b 7f8c 54bc 9a50 0f3c
000000f0: 9660 e43c c040 4ebc c421 de3a 4231 a03c
00000100: 3170 cf3c d899 13bc 57a4 c0bb 78b5 773a
00000110: 064c 16bc 6de2 c8bb 0578 adbb 3712 9e3c
00000120: 0fc6 01bb 3214 73bb 768c 143b 2951 a0bb
00000130: e1d5 5b3b 8e0e c3bb 4402 9e3c ef2c 80bc
00000140: a8d5 0e3c 094c 493c e5a9 e53c 1960 ac3c
00000150: ea09 133b 48e4 91bb c793 a0b9 4676 ebbb
00000160: 622c efbc d7f7 143c 8f4a 173b f471 e0bc
00000170: fb9d 94bc 6232 e4bb 0649 173b 320e 823c
00000180: cf42 b4bc 7b8a c9bc 056c 723b cd7e cbbc
00000190: 54cc abbb 5475 aabc f5bb 5ebb fdc9 1f3c
000001a0: 7d85 efbc 958f 173b 0d9e d63a 940e 983b
000001b0: b731 173a 624b 8e3c acc7 e1bb 38ca ab3b
000001c0: 05aa e1bc e93a f0bb 8f54 cebc 8457 903c
000001d0: 8708 a7bc 494c aebb 2f98 16bc 619a f9bc
000001e0: 6069 6c3c bd62 9c3c d98a 53bc 193a 973c
000001f0: 531f cabc 6987 113c af32 323c 786e dd3b
00000200: b74c 40bc d7ea 033c 2ee3 1fbb 2d24 b7bc
00000210: 3d72 8f3c ea86 babc f51b 38bc 70a9 85bc
00000220: dcdb e9bc 9fe7 e0bc 2166 29bc 5c6a 833c
00000230: 3f58 c7bc ec2d ccbc 6e63 bd3b b0e9 6d3c
00000240: c441 8f3c b8af e4bc 5341 4a3c 0905 cdbc
00000250: ff6a b0bc 1d74 95bb dbc9 c3bc 907f dfbc
00000260: aa57 aebc cf4b 443b 9b10 45bc 8e3e 233c
00000270: ae6b 81bc 98e9 dfbc ba2e 313c de11 97bc
00000280: 1adf 37bc e3e5 ffbc 1246 85bc 28ad d83b
00000290: 277b c6bc a6e9 4d3c ef26 94bc 3b79 deba
000002a0: 3648 f8ba d46a e438 e802 963c 17ce b23a
000002b0: 6af2 b3bb af28 c2bc 5113 c2bc 2c2c c9bb
000002c0: 7a34 d1bc dd9f 74bb 6567 04bb 5068 313b
000002d0: ee32 88bc 667e e1bc 573c bcbb 5c80 aaba
000002e0: bdb9 653c 1b70 fdbb 76d8 06bc 7560 b93b
000002f0: 94c0 e2bc a98b ecbc 9eba afbc 7fdf c13b
00000300: dee6 ffbc a994 773c 6106 f9bc 0ba8 91bc
00000310: e5f6 f1bc 7d82 2e3c e8fd 703c 1465 063c
00000320: 3071 2abc 840e 213c 5458 693c 773f 24bc
00000330: df56 d8bb 7c77 a4bc 88de 43bb 5a7e f8bc
00000340: 3b3f e2b9 7f49 9bbc f3ae 8c3c a17c 95bc
00000350: 8264 fbbc 9aaf 1c3b 61cf f03b c20a cfbc
00000360: 464d 9c3c 1a30 0dbb 2a3e 14bc 97bd b5bc
00000370: b796 54bc e540 aebc ec14 a0bc 68c3 c0bb
00000380: 59d2 513b 0aed c6bc 3de1 883c 942a 293c
00000390: 411b c0bc 6fca 6a3c 06de e0ba 709d 4cbc
000003a0: 6f96 763a 73db 81bb eefa a6ba 39f0 7ebb
000003b0: 72d7 0a3a 21e9 37bc a7bc 4cbb 1be5 9a3c
000003c0: 8a9c 6dbb c184 92bc c827 323c 356c efbc
000003d0: 7840 243c 07c5 90bc 7ab2 dfbc 6b46 7f3c
000003e0: 034e 213c 772d e9bc c016 1f3c daa1 d1bb
000003f0: d444 a23b 57f3 b0bc 4fa1 04bc 0789 a2bc

column1.8.bias f4 [16]
-0.011471506 -0.009813602 0.014116004 0.017080896 -0.0015618072 -0.0002102253 0.005988538 0.0031261297
-0.008565864 0.0041320836 0.007980843 -0.0115934005 -0.014415466 -0.016857756 -0.007371564 -0.015434805
00000000: fcf2 3bbc 3bc9 20bc d046 673c 3ced 8b3c
00000010: 8eb5 ccba ed6f 5cb9 7f3b c43b c1df 4c3b
00000020: d657 0cbc 6e66 873b 15c2 023c 3ff2 3dbc
00000030: d92e 6cbc 4719 8abc 298d f1bb 44e2 7cbc

column1.10.weight f4 [8, 16, 7, 7]
-0.0193919 -0.032667235 0.027710252 -0.028042326 -0.026757339 -0.007656464 0.009764855 0.024477474
0.033185523 -0.021615732 0.0033590498 -0.00915398 0.021624876 0.00021657349 -0.009483814 0.021049462
0.005580664 -0.035206705 -0.012476249 -0.0026416013 -0.019824672 0.0065936404 0.0013857399 -0.017255848
0.03104296 0.02499417 0.023700511 -0.0036286118 -0.032741353 -0.0107943 0.011129738 0.027538398
0.0078388285 0.01530403 0.0065296 0.024530781 -0.019877817 0.00666483 0.027943498 -0.02545109
0.032142263 0.030223861 0.0319837 -0.00045629486 0.011461885 0.015118557 -0.033286974 0.01863323
0.033522684 0.018498642 -0.033550933 0.007518441 0.02636871 0.0067972033 0.030008981 0.02665825
0.02461027 0.02404833 -0.014088691 -0.025883067 -0.03093735 0.032201685 -0.0075257807 0.0033903804
0.0009892924 -0.031157082 0.013479378 -0.0060686176 0.020934038 0.0029640412 -0.015649255 -0.013914684
0.03311803 0.005704948 -0.009038602 -0.020311275 0.035626095 -0.0052505736 0.021204991 0.0033061975
-0.025434447 -0.027661517 0.031616144 0.028210748 -0.024975369 0.008739455 0.0077531766 0.008049369
-0.016167123 0.0072676884 -0.0033586964 0.024384968 -0.007523533 -0.026690628 0.011496668 -0.015966892
0.026377816 0.02749014 -0.010277752 0.0034898804 -0.023267621 0.024246467 0.020532954 -0.019995227
0.0011758456 -0.0073146503 0.020730218 -0.029892841 0.0029115188 0.028231878 -0.0026675637 0.000535265
-0.00035941717 -0.023970993 0.013928446 -0.021106826 0.0060290415 0.0022563713 -0.03412327 -0.0018278694
0.0065820655 -0.018779663 -0.007382328 -0.031736165 -0.03289527 0.008728134 -0.0026484982 0.011882452
-0.03974359 -0.029532881 -0.036068074 0.007784084 0.02591912 -0.02253685 0.028645648 0.011322584
-0.018509705 0.0018191109 0.0065887887 0.022205155 -0.01891841 0.0022573408 0.025663529 0.027515892
-0.017436659 -0.012201907 -0.017260423 0.0026309895 0.013171608 0.028260713 0.029278642 -0.025774261
-0.0247418 -0.03758698 -0.0352423 0.022542931 -0.003023906 -0.026539136 -0.029612718 0.0046484256
0.010794147 0.017022306 -0.019629486 -0.020796923 0.02054685 -0.03369877 0.0040109656 0.002607606
0.008157626 -0.008556121 -0.03318655 -0.028874256 -0.040280595 -0.01716894 0.025057923 0.0137124555
0.0068098097 -0.01887847 0.006522439 0.023945376 -0.0029094473 0.009646547 -0.032643765 -0.03626588
-0.03745683 0.021122886 -0.0043779956 -0.013710411 -0.039197307 0.00787408 -0.0011455165 0.0017915706
-0.02542258 -0.031127106 -0.0041423817 0.021403568 -0.02828391 -0.0041593835 -0.017143065 -0.0152986245
-0.010209089 -0.020944772 0.02286415 0.021842433 -0.029818822 0.023990428 0.027761787 -0.040945902
-0.022723734 -0.0021134345 -0.0287782 0.019553456 0.01380797 -0.002210434 -0.012556385 -0.031179573
-0.038553383 -0.027103236 -0.032524902 -0.020372985 -0.00663903 0.0025855708 -0.015080463 0.025806801
0.010842932 -0.0057440647 -0.008656509 0.018171925 -0.029854033 -0.017011631 -0.008601326 0.015167402
0.015815997 -7.175475e-05 -0.004892321 0.01590814 0.019577112 -0.012300905 -0.0051754825 0.004361582
0.015249983 0.014556269 -0.014324038 -0.017094623 -0.040329795 0.030442037 0.0062699947 0.018444927
0.019979231 0.01999075 -0.031478267 -0.01719494 -0.013934121 0.027489686 -0.028044349 -0.039467342
00000000: c3db 9ebc 14ce 05bd 9c00 e33c 05b9 e5bc
00000010: 3532 dbbc 13e3 fabb c5fc 1f3c fc84 c83c
00000020: 8bed 073d 7a13 b1bc 8123 5c3b 93fa 15bc
00000030: a726 b13c 0118 6339 0062 1bbc ec6f ac3c
00000040: 01de b63b e834 10bd 2e69 4cbc b71e 2dbb
00000050: 5a67 a2bc 770f d83b b7a1 b53a 235c 8dbc
00000060: ce4d fe3c 93c0 cc3c 9327 c23c 01ce 6dbb
00000070: cc1b 06bd 93da 30bc 8159 363c 3598 e13c
00000080: 6e6e 003c c1bd 7a3c 41f6 d53b c7f4 c83c
00000090: ced6 a2bc a564 da3b c3e9 e43c ce7e d0bc
000000a0: 9ba7 033d 0898 f73c 5701 033d dc3a efb9
000000b0: a1ca 3b3c d3b3 773c ec57 08bd b7a4 983c
000000c0: 154f 093d 778a 973c b46c 09bd 415d f63b
000000d0: 3103 d83c 13bb de3b 65d5 f53c 6762 da3c
000000e0: 7a9b c93c 0101 c53c 41d4 66bc ba08 d4bc
000000f0: 5370 fdbc eae5 033d d39a f6bb 2531 5e3b
00000100: 25ab 813a 233d ffbc 9cd8 5c3c 41db c6bb
00000110: dc7d ab3c 5c40 423b de32 80bc 6afa 63bc
00000120: c5a6 073d 93f0 ba3b a516 14bc d563 a6bc
00000130: abec 113d 010d acbb 17b6 ad3c caac 583b
00000140: e75b d0bc 689a e2bc ee7f 013d 3a1a e73c
00000150: 2599 ccbc ee2f 0f3c 5c0e fe3b 80e1 033c
00000160: ea70 84bc ca25 ee3b 931d 5cbb fcc2 c73c
00000170: f887 f6bb 4ea6 dabc 855c 3c3c 00cd 82bc
00000180: 4a16 d83c 0133 e13c 0464 28bc 7ab6 643b
00000190: bd9b bebc 87a0 c63c ba34 a83c 08cd a3bc
000001a0: d51e 9a3a bcaf efbb 6bd2 a93c d5e1 f4bc
000001b0: 2ecf 3e3b 8a46 e73c 4bd2 2ebb 0751 0c3a
000001c0: 2870 bcb9 d15e c4bc 2334 643c 39e8 acbc
000001d0: 448f c53b a1df 133b d8c4 0bbd 1f95 efba
000001e0: 5eae d73b cfd7 99bc 75e7 f1bb c8fd 01bd
000001f0: 31bd 06bd 7300 0f3c 6d92 2dbb 9eae 423c
00000200: 2dca 22bd f1ee f1bc 1ebc 13bd a111 ff3b
00000210: 5654 d43c 339f b8bc 47aa ea3c 5c82 393c
00000220: aaa1 97bc 3c6f ee3a c4e6 d73b 96e7 b53c
00000230: c8fa 9abc e5ef 133b 523c d23c 0269 e13c
00000240: 53d7 8ebc 82ea 47bc bb65 8dbc ae6c 2c3b
00000250: bacd 573c 0383 e73c c3d9 ef3c 8b24 d3bc
00000260: 51af cabc cef4 19bd 3b5a 10bd f4ab b83c
00000270: b92c 46bb 9a68 d9bc 5f96 f2bc d251 983b
00000280: efd9 303c 5d72 8b3c 04ce a0bc 4f5e aabc
00000290: de51 a83c b907 0abd 6b6e 833b 5ee4 2a3b
000002a0: 90a7 053c f92e 0cbc 9fee 07bd b489 ecbc
000002b0: 44fd 24bd e0a5 8cbc 4646 cd3c 35aa 603c
000002c0: d324 df3b 05a7 9abc 2fba d53b 1829 c43c
000002d0: 6dac 3ebb 8d0c 1e3c 78b5 05bd 888b 14bd
000002e0: 556c 19bd e709 ad3c 4a75 8fbb a2a1 60bc
000002f0: 5b8d 20bd 4902 013c 2825 96ba 22d3 ea3a
00000300: 0443 d0bc 46fe febc d1bc 87bb 8956 af3c
00000310: a9b3 e7bc 704b 88bb 9d6f 8cbc 15a7 7abc
00000320: 0644 27bc 5f94 abbc 994d bb3c e7ee b23c
00000330: 9a46 f4bc 9387 c43c b06c e33c e4b6 27bd
00000340: 2027 babc 8c81 0abb 42c0 ebbc 922e a03c
00000350: d33a 623c eedc 10bb 4cb9 4dbc 4e6c ffbc
00000360: 27ea 1dbd 9b07 debc d538 05bd 3fe5 a6bc
00000370: 388c d9bb ae72 293b 0c14 77bc c968 d33c
00000380: 8ea6 313c b538 bcbb 08d4 0dbc 4add 943c
00000390: 7290 f4bc fa5b 8bbc 93ec 0cbc b280 783c
000003a0: 8d90 813c 0a7b 96b8 c34f a0bb ca51 823c
000003b0: 2e60 a03c bc89 49bc 1897 a9bb 9aeb 8e3b
000003c0: 11db 793c 6b7d 6e3c 5faf 6abc 060a 8cbc
000003d0: db30 25bd 9461 f93c 8774 cd3b d119 973c
000003e0: 7cab a33c a4c3 a33c 5bef 00bd 67dc 8cbc
000003f0: f04b 64bc 0d32 e13c 43bd e5bc 82a8 21bd

column1.10.bias f4 [8]
-0.024549017 0.054878023 -0.03527097 -0.03538183 -0.028872864 0.027032388 -0.02247042 0.044130713
00000000: 051b c9bc c7c7 603d 4b78 10bd 8aec 10bd
00000010: c986 ecbc 0773 dd3c e313 b8bc 68c2 343d

column2.0.weight f4 [10, 3, 7, 7]
-0.00840395 -0.0809914 0.04552523 0.05748795 -0.024136737 -0.06467287 0.074622504 0.061485145
-0.08828071 -0.010016768 0.014825233 -0.07998954 0.06957494 -0.012414735 -0.016463045 -0.007503914
-0.079569936 -0.034874726 0.068041176 0.003569122 -0.030449495 0.0686841 0.04409981 0.021916775
0.06574086 0.019796345 0.043189492 -0.045216046 -0.049181283 0.03764427 -0.08806549 -0.056602355
-0.08292207 0.0066517196 -0.08200335 -0.043349255 0.05803551 -0.060034044 -0.042450495 0.02358395
-0.06167772 -0.07997135 0.03337635 -0.01431681 0.03267563 -0.076971196 -0.06402319 0.056209657
0.03397654 -0.07930995 -0.042781398 -0.08340905 0.02570158 0.022112744 -0.0013508209 -0.08509294
0.07007574 0.06952817 0.008747286 0.03897399 0.05676033 0.02756459 0.023168042 -0.005300556
0.024119228 -0.028856063 -0.053452868 0.04552527 0.03797561 0.03241905 0.0528104 -0.056740057
-0.06087972 -0.015366856 -0.014674189 0.027149033 0.048291888 0.036504436 0.050106727 0.05995423
-0.019680105 -0.03837795 -0.0518977 -0.0794239 -0.018428104 -0.07270449 -0.08535363 0.03363165
-0.052942954 0.04999172 -0.002989281 -0.06962355 -0.026354373 0.067971475 -0.029370392 -0.058965567
-0.0020150652 -0.07569758 0.017217798 0.028224781 -0.038952842 -0.040867344 0.06566909 0.04411206
-0.036349986 -0.05683876 0.049832977 -0.08758327 -0.038908396 -0.06278419 0.0573116 -0.0047868495
0.01421876 -0.007834391 -0.024155784 -0.040900234 -0.006531567 -0.010627954 0.056325212 0.062870026
-0.026617952 -0.057676412 -0.00310265 -0.016368385 -0.03723239 0.012527654 -0.01728132 0.025250724
-0.08502207 -0.0076019554 -0.019319223 0.07396641 -0.054586917 0.050798483 0.0027376323 -0.05657871
-0.082498856 0.022238854 0.050489582 -0.025353653 -0.060253516 -0.009535016 -0.066864505 0.039783057
0.03799761 -0.042328693 -0.046567682 -0.0773989 -0.056676153 -0.02219823 0.06159426 -0.03364394
0.00887798 0.063810445 -0.07281219 -0.04003388 0.021114796 -0.013999496 0.051846676 -0.035031423
0.06995934 0.010203423 0.029849848 0.014410166 0.058683015 -0.027472254 0.013901274 0.061427467
0.006080859 -0.015534127 -0.033737004 0.072294645 -0.0471263 0.07287434 0.0011321545 0.06404968
-0.04787501 0.024676332 0.021564258 0.012666504 -0.028235517 -0.042325884 0.060896892 0.07211563
0.0269789 0.056793187 -0.031312704 0.053654738 0.010329447 0.040761862 -0.04286446 -0.07221973
-0.042784814 -0.071700804 0.034966186 -0.048359778 0.07661592 -0.05493394 -0.037217047 -0.052227583
-0.003479935 -0.043291356 0.030011585 0.044583395 -0.004886414 0.064215355 -0.08634509 0.0683752
0.012315459 0.01424064 0.045133296 -0.06378827 -0.040995844 -0.027680596 0.07508358 -0.058525432
-0.0017340217 -0.047189116 0.0074426453 -0.05236038 -0.062953405 -0.06477687 0.07650767 -0.057065487
0.06581313 0.06388972 0.07293747 0.04871037 0.037002407 -0.041514885 0.011526212 0.045233145
0.05536114 0.030956669 0.017766733 -0.08673951 0.071361646 -0.07987374 -0.08592292 0.0701332
0.038014892 0.0061260695 0.008137039 -0.0810121 0.07071484 -0.019665306 -0.056477413 -0.014737622
-0.08494998 0.006057788 -0.017773438 -0.07278771 -0.040334813 0.014991479 -0.03893195 -0.006871618
00000000: b9b0 09bc d2de a5bd aa78 3a3d 7c78 6b3d
00000010: 68ba c5bc 3673 84bd afd3 983d d9d7 7b3d
00000020: 84cc b4bd 5f1d 24bc 89e5 723c 8ed1 a3bd
00000030: 4e7d 8e3d 2c67 4bbc 82dd 86bc 65e3 f5bb
00000040: 90f5 a2bd cdd8 0ebd 2c59 8b3d eee7 693b
00000050: 3871 f9bc 40aa 8c3d 01a2 343d cf8a b33c
00000060: 25a3 863d f22b a23c 77e7 303d 7634 39bd
00000070: 5072 49bd e130 1a3d ae5b b4bd dfd7 67bd
00000080: 0cd3 a9bd abf6 d93b 5ff1 a7bd fd8e 31bd
00000090: a5b6 6d3d 42e6 75bd 92e0 2dbd 2133 c13c
000000a0: c7a1 7cbd 05c8 a3bd a4b5 083d 0e91 6abc
000000b0: e2d6 053d 13a3 9dbd 971e 83bd 193c 663d
000000c0: fc2a 0b3d 416d a2bd 8c3b 2fbd 5dd2 aabd
000000d0: 1f8c d23c c925 b53c 070e b1ba 3545 aebd
000000e0: df83 8f3d c964 8e3d c750 0f3c 31a3 1f3d
000000f0: 857d 683d 23cf e13c e8ca bd3c 49b0 adbb
00000100: b095 c53c 8d63 ecbc 65f1 5abd b578 3a3d
00000110: 508c 1b3d d6c9 043d b84f 583d 4368 68bd
00000120: 035d 79bd 44c5 7bbc 026c 70bc a667 de3c
00000130: b7cd 453d ad85 153d b63c 4d3d 9192 753d
00000140: 2c38 a1bc 3332 1dbd af92 54bd ffa8 a2bd
00000150: 89f6 96bc 17e6 94bd e2cd aebd 57c1 093d
00000160: b6da 58bd 1ec4 4c3d d0e7 43bb cb96 8ebd
00000170: 20e5 d7bc a134 8b3d 2d9a f0bc e185 71bd
00000180: 2f0f 04bb 5507 9bbd 570c 8d3c a837 e73c
00000190: 048d 1fbd 8464 27bd 847d 863d d9ae 343d
000001a0: b9e3 14bd c2cf 68bd aa1d 4c3d dc5e b3bd
000001b0: 695e 1fbd ff94 80bd 91bf 6a3d 01db 9cbb
000001c0: cdf5 683c d15b 00bc 5ae2 c5bc 0187 27bd
000001d0: c106 d6bb df20 2ebc 44b5 663d 00c2 803d
000001e0: e40d dabc 1a3e 6cbd d455 4bbb fe16 86bc
000001f0: fe80 18bd ca40 4d3c 8e91 8dbc 9bda ce3c
00000200: 0d20 aebd d319 f9bb 5943 9ebc b37b 973d
00000210: 8896 5fbd 1212 503d d969 333b 14bf 67bd
00000220: 29f5 a8bd 422e b63c 2ace 4e3d 77b2 cfbc
00000230: 64cc 76bd c138 1cbc 42f0 88bd 8ff3 223d
00000240: 62a3 1b3d da60 2dbd c1bd 3ebd 5183 9ebd
00000250: 4125 68bd 10d9 b5bc 434a 7c3d 3ace 09bd
00000260: f274 113c 0daf 823d 8f1e 95bd 91fa 23bd
00000270: f0f8 ac3c 245e 65bc 2e5d 543d 1c7d 0fbd
00000280: d846 8f3d 422c 273c ab87 f43c 9e18 6c3c
00000290: 9a5d 703d 7e0d e1bc 2bc2 633c 5e9b 7b3d
000002a0: f141 c73b da82 7ebc d02f 0abd 370f 943d
000002b0: 8207 41bd 243f 953d cd64 943a 7b2c 833d
000002c0: 9618 44bd 0526 ca3c 87a7 b03c 2b87 4f3c
000002d0: 2c4e e7bc e85d 2dbd 056f 793d 5cb1 933d
000002e0: db02 dd3c f99f 683d c041 00bd 12c5 5b3d
000002f0: d73c 293c e9f5 263d a592 2fbd f0e7 93bd
00000300: 213f 2fbd dfd7 92bd b438 0f3d e714 46bd
00000310: cfe8 9c3d 6902 61bd e770 18bd 97ec 55bd
00000320: 9f0f 64bb 4752 31bd dbda f53c 149d 363d
00000330: 361e a0bb 5783 833d b2d5 b0bd 4c08 8c3d
00000340: c7c6 493c 9351 693c b1dd 383d 6da3 82bd
00000350: 42eb 27bd 6bc2 e2bc 6cc5 993d 5db8 6fbd
00000360: 1d48 e3ba 6049 41bd 6fe1 f33b d677 56bd
00000370: b7ed 80bd bca9 84bd 0eb0 9c3d 80bd 69bd
00000380: 09c9 863d 9dd8 823d 3e60 953d 8684 473d
00000390: d68f 173d 830b 2abd 70d8 3c3c 6446 393d
000003a0: 5dc2 623d d798 fd3c 8a8b 913c 7ca4 b1bd
000003b0: 0e26 923d d894 a3bd 5bf8 afbd ffa1 8f3d
000003c0: 81b5 1b3d 32bd c83b 3751 053c ace9 a5bd
000003d0: f1d2 903d 2319 a1bc dc54 67bd 1176 71bc
000003e0: 41fa adbd 6980 c63b 9a99 91bc b911 95bd
000003f0: 1e36 25bd d29e 753c 1c77 1fbd 4f2b e1bb

column2.0.bias f4 [10]
0.008501906 -0.015258113 0.07810638 0.03869161 0.023904288 -0.0038862529 0.045408793 -0.04394825
-0.03955815 0.058565993
00000000: 944b 0b3c 2afd 79bc 3df6 9f3d 187b 1e3d
00000010: edd2 c33c 81b0 7ebb 92fe 393d 1503 34bd
00000020: ba07 22bd e5e2 6f3d

column2.3.weight f4 [20, 10, 5, 5]
-0.028303947 -0.019681845 -0.07250714 0.028736051 0.03648945 -0.046507336 -0.020332118 -0.05329572
0.0017641587 0.012544755 -0.040036056 0.0013838911 -0.054491907 -0.051095765 0.015069663 0.030018378
-0.05032168 0.049467277 -0.04676696 -0.038808197 -0.010600371 -0.041262355 -0.016553026 -0.060664568
-0.005299392 -0.043179672 -0.049721897 -0.047687802 -0.007703003 -0.06960097 0.052692693 -0.01244658
-0.054764044 -0.030199066 -0.031716343 -0.064427674 -0.019226799 -0.020812968 0.0017432249 -0.0041241343
0.037352063 -0.013492672 0.046025947 0.047893368 -0.066463225 -0.020115737 0.013220474 -0.012715466
0.03587837 0.051712915 -0.032468934 -0.06183548 -0.0095221875 0.0003901477 -0.009271101 -0.06188874
0.04549319 -0.03563346 0.052834664 -0.032346874 0.0013028258 -0.03032239 -0.025270835 -0.03528457
-0.04823712 0.03425174 0.042504717 -0.06270755 0.039188046 -0.040993422 -0.05886453 0.042337026
-0.06080039 0.03687781 0.021278612 -0.06550251 -0.051834084 -0.04003623 -0.04044527 0.035599377
-0.036721483 -0.016870478 -0.06523328 0.019139595 -0.05613478 0.020588785 -0.03637876 -0.03952252
0.048589468 0.05416405 -0.034096703 -0.055381462 0.05373538 -0.04755651 -0.06700275 -0.05543682
-0.05330318 0.050169967 0.03546622 0.0005296054 -0.062467836 -0.005272629 0.020987859 -0.04177035
-0.0008455687 -0.049429983 0.05134964 0.03853185 -0.05442109 -0.005668721 -0.041550003 0.005676739
0.01554756 0.04880412 -0.06692801 -0.020418534 -0.0369174 0.00050953147 -0.012935192 0.044284195
0.021362707 -0.03301926 0.02197004 -0.05943648 -0.005762202 0.034595817 0.037740868 -0.024391446
0.034531362 0.0073277424 -0.028444085 -0.013274304 -0.046864696 -0.049207862 -0.02290367 0.05960135
0.056839038 0.012145257 -0.0005674809 0.010148287 0.013847847 0.058037594 -0.04631296 -0.059890285
-0.011250506 0.038821384 -0.00213053 -0.045988712 3.8625432e-05 -0.022903202 -0.023757776 0.03128184
-0.0024489358 -0.0080606695 -0.0063315537 0.007987693 -0.022956831 -0.009918385 0.0034046378 0.03330052
-0.05047487 -0.04342402 -0.06407909 0.04873578 0.054020997 0.03460367 0.010754984 0.054343484
-0.068719834 -0.018384617 -0.008215412 -0.021246113 -0.06439863 -0.06133653 0.05453993 0.039372317
-0.044459045 -0.019693354 -0.0064355964 0.021888422 -0.03517387 -0.057015333 -0.06239682 -0.0055888006
-0.02579438 -0.017040214 0.043399077 0.059115887 0.040335096 0.038670093 0.05243878 0.056236833
0.02623092 0.047096208 0.0045844144 -0.037548065 -0.017159443 0.021135993 -0.050992556 -0.039214738
-0.045089453 0.037275784 -0.006452905 0.05588474 0.019575553 -0.036708184 0.044567302 0.04721214
-0.047164146 -0.0036434506 0.015397185 0.039187543 0.021340845 0.012090886 0.043065403 0.056439914
0.0388471 0.021892738 0.04589529 0.026638083 -0.047515325 -0.042504385 0.0022242402 -0.0044267965
-0.06153877 -0.0051122853 0.010721477 -0.071022965 -0.047003422 -0.04213553 -0.011711868 -0.053445425
-0.047911834 -0.03124287 0.048214205 0.036964882 -0.032661498 0.009231101 0.0074999994 0.041231018
-0.0024155322 -0.05625925 -0.027834732 -0.011166245 0.01023219 -0.05587422 0.0031093764 -0.02186053
-0.014467696 -0.003990664 -0.03842306 -0.043686267 -0.026229981 -0.042933118 0.02574431 0.037164498
00000000: aedd e7bc d23b a1bc a07e 94bd de67 eb3c
00000010: f675 153d 7a7e 3ebd 8b8f a6bc 9d4c 5abd
00000020: 583b e73a 8488 4d3c d9fc 23bd ae63 b53a
00000030: e832 5fbd cb49 51bd bfe6 763c 1ae9 f53c
00000040: 1b1e 4ebd 339e 4a3d b68e 3fbd 58f5 1ebd
00000050: 2ead 2dbc b702 29bd 369a 87bc 697b 78bd
00000060: 86a6 adbb 2bdd 30bd 30a9 4bbd 4954 43bd
00000070: 7969 fcbb f48a 8ebd 4bd4 573d beec 4bbc
00000080: 4350 60bd 0864 f7bc ffe8 01bd a8f2 83bd
00000090: 8581 9dbc f57f aabc ec7c e43a bf23 87bb
000000a0: 7afe 183d 5e10 5dbc b485 3c3d d62b 443d
000000b0: df1d 88bd c2c9 a4bc b09a 583c 8854 50bc
000000c0: 33f5 123d ecd0 533d 25fe 04bd 3347 7dbd
000000d0: f302 1cbc bd8c cc39 d1e5 17bc 0c7f 7dbd
000000e0: 1157 3a3d 64f4 11bd 2969 583d 287e 04bd
000000f0: 94c3 aa3a a966 f8bc c804 cfbc 8e86 10bd
00000100: 4994 45bd 8d4b 0c3d 6d19 2e3d d16c 80bd
00000110: a583 203d b8e8 27bd ef1b 71bd 9769 2d3d
00000120: d409 79bd 300d 173d 7c50 ae3c 2e26 86bd
00000130: fa4f 54bd 08fd 23bd f0a9 25bd a7d0 113d
00000140: 4469 16bd f533 8abc 0799 85bd a4ca 9c3c
00000150: 95ed 65bd d0a9 a83c e501 15bd 5ee2 21bd
00000160: c005 473d 1fdb 5d3d fca8 0bbd acd7 62bd
00000170: a119 5c3d 9dca 42bd bd38 89bd b811 63bd
00000180: 6f54 5abd 067f 4d3d 0745 113d 37d5 0a3a
00000190: 46de 7fbd 05c6 acbb bbee ab3c 6317 2bbd
000001a0: 28a9 5dba 1877 4abd 0054 523d 93d3 1d3d
000001b0: a6e8 5ebd aec0 b9bb 5630 2abd f003 ba3b
000001c0: 31bb 7e3c d4e6 473d 8d11 89bd c544 a7bc
000001d0: b336 17bd 1492 053a 21ee 53bc 5863 353d
000001e0: d800 af3c 343f 07bd 83fa b33c ab73 73bd
000001f0: dbd0 bcbb 58b4 0d3d 2b96 1a3d 92d0 c7bc
00000200: c270 0d3d 8f1d f03b 9203 e9bc 777c 59bc
00000210: 32f5 3fbd 2f8e 49bd 7aa0 bbbc 8c20 743d
00000220: 0dd0 683d e6fc 463c 00c3 14ba 0045 263c
00000230: 14e2 623c d4b8 6d3d a9b2 3dbd 844f 75bd
00000240: 0b54 38bc 2c03 1f3d 5da0 0bbb a95e 3cbd
00000250: be01 2238 7f9f bbbc ab9f c2bc 6321 003d
00000260: 537e 20bb e610 04bc ec78 cfbb d0de 023c
00000270: f70f bcbc b980 22bc 5820 5f3b 2066 083d
00000280: bdbe 4ebd 63dd 31bd e63b 83bd 2b9f 473d
00000290: 1f45 5d3d 94bc 0d3d ac35 303c 4697 5e3d
000002a0: fcbc 8cbd 569b 96bc ef99 06bc 540c aebc
000002b0: 6ee3 83bd 033c 7bbd 4365 5f3d de44 213d
000002c0: b01a 36bd f553 a1bc b2e1 d2bb 594f b33c
000002d0: 7a12 10bd e988 69bd cf93 7fbd 4222 b7bb
000002e0: bc4e d3bc eb97 8bbc 3bc3 313d 8023 723d
000002f0: 6a36 253d 8864 1e3d 0cca 563d 9858 663d
00000300: 3ae2 d63c f4e7 403d db38 963b 00cc 19bd
00000310: f691 8cbc 6425 ad3c 92dd 50bd a29f 20bd
00000320: b8af 38bd 7eae 183d e472 d3bb 66e7 643d
00000330: e95c a03c 525b 16bd 348c 363d 8461 413d
00000340: 312f 41bd f5c6 6ebb 7a44 7c3c 1e83 203d
00000350: ffd2 ae3c da18 463c 5965 303d 8a2d 673d
00000360: 231e 1f3d 6658 b33c b3fc 3b3d 1c38 da3c
00000370: 6e9f 42bd 1419 2ebd 8fc4 113b a90e 91bb
00000380: 1410 7cbd f584 a7bb 22a9 2f3c 7d74 91bd
00000390: a986 40bd 4e96 2cbd 23e3 3fbc 97e9 5abd
000003a0: 333f 44bd 0cf1 ffbc 427c 453d 7d68 173d
000003b0: 10c8 05bd 0b3e 173c 8ec2 f53b dbe1 283d
000003c0: e84d 1ebb 1970 66bd aa05 e4bc a0f2 36bc
000003d0: eaa4 273c 5edc 64bd aec6 4b3b db14 b3bc
000003e0: ea09 6dbc 1ec4 82bb 8061 1dbd 5ff0 32bd
000003f0: 42e0 d6bc a3da 2fbd bbe5 d23c cd39 183d

column2.3.bias f4 [20]
-0.005389793 -0.072483405 -0.06114482 0.02075198 -0.006995149 0.010398511 0.0441652 -0.007142582
0.02740819 -0.025752949 0.01627129 -0.004871817 -0.01942991 -0.035548206 -0.06441978 -0.009018714
0.026472906 -0.05880102 -0.043307763 -0.004193137
00000000: dc9c b0bb 2e72 94bd fe72 7abd 0e00 aa3c
00000010: 9037 e5bb 845e 2a3c 92e6 343d 520c eabb
00000020: 2487 e03c d9f7 d2bc 5e4b 853c c3a3 9fbb
00000030: 7a2b 9fbc ff9a 11bd 85ee 83bd 3ac3 13bc
00000040: b5dd d83c 57d9 70bd 7b63 31bd 9566 89bb
